state_dict_model1.pt (torch, 42791 bytes, 6 tensors)

layer1.weight f4 [64, 9]
0	0x3e5dd5d5	0.21663602
1	0x3d830228	0.06396896
2	0xbe54ad1a	-0.20769158
3	0xbe9574ca	-0.29190665
4	0x3f0afe16	0.54293954
5	0xbbcf6651	-0.0063293357
6	0xbe5c69d5	-0.21524747
7	0x3eba06dd	0.3633336
8	0xbe0c9b4d	-0.13731118
9	0x3f4b31c5	0.7937282
10	0x3dae4728	0.08509666
11	0xbdc34705	-0.0953503
12	0xbe9731bb	-0.2953013
13	0x3e1511da	0.14557591
14	0xbea51fe7	-0.32250902
15	0x3e1a1e09	0.1505052
16	0xbcfaf3b9	-0.030633794
17	0xbefe7e2c	-0.49705637
18	0x3e46b8bf	0.19406413
19	0x3dd85974	0.10563937
20	0x3ec3e59a	0.3826111
21	0x3e584e5e	0.21123645
22	0x3ea17e82	0.3154183
23	0x3e23f054	0.16009647
24	0xbf09874c	-0.5372207
25	0x3e6c490c	0.2307474
26	0x3ed715d3	0.42008838
27	0xbeb864a2	-0.36014277
28	0x3c1b4221	0.009476216
29	0x3db8584e	0.09001218
30	0x3ecf6b6b	0.4051164
31	0xbe168368	-0.14698565
32	0xbe0f29e8	-0.1398083
33	0x3d09ad81	0.03361273
34	0x3d15b877	0.036552873
35	0x3e5906c7	0.21193992
36	0x3c806da1	0.015677275
37	0x3f053e31	0.5204802
38	0x3e42e9fc	0.1903457
39	0x3c5baf02	0.013408424
40	0x3e875379	0.26430872
41	0x3e732818	0.23745763
42	0xbe9513ef	-0.2911677
43	0xbf04da24	-0.51895356
44	0x3ccb4126	0.024811339
45	0xbeabb86f	-0.3353915
46	0xbe592102	-0.21203998
47	0xbe090c6e	-0.13383648
48	0x3eaaa0fe	0.33325952
49	0xbd8bd97b	-0.068285905
50	0xbe1459d7	-0.14487396
51	0x3f08ee2a	0.5348841
52	0xbe2d5b33	-0.16929321
53	0x3eddb745	0.43303886
54	0xbeee96e2	-0.4659949
55	0xbec1e87e	-0.3787269
56	0x3ddac4ac	0.106820434
57	0xbebc51e0	-0.36781216
58	0xbe1941db	-0.14966528
59	0xbe284bab	-0.16435115
60	0x3ee80cae	0.45322174
61	0xbd82b3c8	-0.06381947
62	0xbdde94b9	-0.1086821
63	0xbe371809	-0.17880262
64	0x3e2c9658	0.16854227
65	0x3e1aa78f	0.15102981
66	0x3e985fa9	0.29760483
67	0xbd5a4edb	-0.05329786
68	0x3e63604d	0.22204705
69	0x3dd6ee30	0.104946494
70	0xbf054103	-0.52052325
71	0x3dfa3efe	0.12219046
72	0x3ea4514e	0.3209328
73	0xbe4da186	-0.20081148
74	0x3db44b9f	0.08803486
75	0x3e6a2fd7	0.22869812
76	0xbe178769	-0.14797749
77	0x3d69b5b9	0.05705807
78	0xbee7b4ad	-0.45255032
79	0xbf0a1dd9	-0.53951794
80	0x3db9af63	0.090666555
81	0x3f196e0f	0.5993356
82	0xbed38709	-0.4131396
83	0x3b487d67	0.0030592324
84	0xbe1ac7cf	-0.15115283
85	0x3e59a04c	0.21252555
86	0xbef16afc	-0.47151935
87	0x3ea764f9	0.32694224
88	0x3e312c6a	0.17302099
89	0xbdba5c95	-0.0909969
90	0x3d1b9e5a	0.037992813
91	0xbed48a1d	-0.41511622
92	0x3eab4988	0.33454537
93	0x3e4d9ba6	0.20078906
94	0xbe287ef6	-0.16454682
95	0x3f0143a3	0.5049383
96	0x3ebdefcb	0.3709701
97	0x3e39cbeb	0.18144195
98	0xbe8684af	-0.26273105
99	0xbe9ddff6	-0.3083493
100	0x3f16a9dd	0.5885294
101	0xbcc5e23e	-0.024155732
102	0x3e416a1f	0.18888138
103	0xbe23aaaa	-0.15983072
104	0x3dee93b5	0.11649267
105	0xbeb691ad	-0.35658017
106	0xbe3d8f3f	-0.18511675
107	0xbe468b24	-0.19389015
108	0x3f006776	0.5015787
109	0xbebf789a	-0.373967
110	0x3d42fab3	0.047602367
111	0x3f07e6d6	0.530866
112	0x3de078e6	0.109605595
113	0x3eceb6b5	0.4037377
114	0xbe1317c3	-0.14364533
115	0x3e3bc914	0.18338424
116	0x3e050ac5	0.1299239
117	0xbed2afb3	-0.41149673
118	0x3e27b585	0.16377838
119	0xbdc00905	-0.0937672
120	0x3d223fb9	0.039611552
121	0xbebd987b	-0.37030396
122	0xbd06a8db	-0.032875877
123	0xbf0ff12e	-0.56227386
124	0xbecfbb02	-0.40572363
125	0xbc0c33aa	-0.00855724
126	0xbda6a06e	-0.08136068
127	0xbe2e66fe	-0.17031476
128	0xbed1f6cb	-0.410086
129	0x3e87ba20	0.2650919
130	0x3c83737e	0.016046282
131	0x3cfeee53	0.031119501
132	0x3eb52c5d	0.3538541
133	0xbe9da80d	-0.30792275
134	0x3e2cc432	0.16871718
135	0x3ee52d18	0.44760966
136	0x3e510f75	0.20416053
137	0xbda3217c	-0.07965371
138	0xbc310b01	-0.010805846
139	0x3d02452a	0.03180424
140	0xbbb923ae	-0.0056500053
141	0xbeae268f	-0.34013793
142	0xbeb7a019	-0.35864332
143	0xbe955e48	-0.29173493
144	0x3e774da4	0.24150711
145	0x3e154227	0.14576016
146	0x3e9fedf2	0.31236225
147	0xbe2a1a0a	-0.16611496
148	0xbf137e21	-0.5761433
149	0x3c6d3841	0.014478744
150	0x3e360512	0.17775372
151	0xbe9a5936	-0.30146188
152	0xbef506d8	-0.47856784
153	0xbe783aff	-0.24241255
154	0x3f0a8819	0.5411392
155	0x3e873dc0	0.264143
156	0x3e45e260	0.19324636
157	0xbe54a03a	-0.20764247
158	0xbf122bd7	-0.57098144
159	0x3e59d84b	0.21273915
160	0x3dd8984e	0.10575925
161	0xbe3a825d	-0.18213792
162	0x3ed487f0	0.41509962
163	0x3e5408e6	0.2070652
164	0x3e8e8581	0.2783623
165	0x3df6171e	0.12016128
166	0x3e339dbf	0.17540644
167	0x3e9f5796	0.3112151
168	0x3e584cba	0.21123019
169	0x3e8a217f	0.2697868
170	0xbe97ce1a	-0.2964943
171	0xbf2612f1	-0.6487265
172	0x3e1cd931	0.15317227
173	0x3e9fe861	0.3123198
174	0xbe45ec47	-0.19328414
175	0x3e517923	0.20456366
176	0xbdb3121b	-0.08743688
177	0xbe5fc36b	-0.2185189
178	0x3e9bf0da	0.30457193
179	0x3d9a52ab	0.07535299
180	0xbe7f0bad	-0.24906798
181	0x3e238384	0.15968138
182	0x3e86191d	0.26191035
183	0xbe826043	-0.25464067
184	0x3e894fd5	0.2681872
185	0x3bbbf3f5	0.005735869
186	0xbea1a104	-0.31568158
187	0xbeadc4dc	-0.33939254
188	0xbe4b5bde	-0.19859263
189	0xbc5f240e	-0.013619436
190	0xbd3ef483	-0.046619903
191	0x3ec7294b	0.38898692
192	0x3ee6a0af	0.45044467
193	0x3d360dd7	0.044446792
194	0xbe0efa67	-0.13962708
195	0xbedb54f0	-0.4283824
196	0x3e807872	0.25091892
197	0x3e3f6713	0.18691663
198	0x3ebaad3d	0.36460295
199	0xbe4714de	-0.19441554
200	0xbddc0c55	-0.1074454
201	0xbdf363ac	-0.11884245
202	0x3de8fcc5	0.11376337
203	0x3e8710a9	0.26379898
204	0xbdaec681	-0.08533955
205	0xbec0435a	-0.37551385
206	0xbec13b21	-0.37740424
207	0x3e50767a	0.20357695
208	0x3e49ad44	0.19695002
209	0x3d73e000	0.059539795
210	0xbf43cf4f	-0.764882
211	0x3e030784	0.12795836
212	0x3d4d751c	0.050160512
213	0xbbac9972	-0.0052673155
214	0xbdac8773	-0.084242724
215	0x3e44e39b	0.1922745
216	0xbe2cc42c	-0.16871709
217	0xbef15558	-0.47135425
218	0xbe9719d9	-0.29511908
219	0xbda193c3	-0.078895114
220	0xbea3ea28	-0.32014585
221	0x3e74c836	0.239045
222	0xbcd134f8	-0.025537953
223	0xbec4b494	-0.3841902
224	0x3e97fe71	0.2968631
225	0x3dde3cae	0.108514175
226	0x3eb89071	0.360477
227	0x3edd5f2e	0.4323668
228	0x3e422537	0.18959509
229	0xbe009c27	-0.12559567
230	0x3eeb6d39	0.45981768
231	0xbe260a63	-0.162149
232	0x3eb60e99	0.35558012
233	0x3e646e25	0.22307642
234	0xbde88f72	-0.11355485
235	0xbdb4654f	-0.088083856
236	0x3e868a37	0.26277325
237	0xbebd8ff8	-0.37023902
238	0x3e9ae9dc	0.30256546
239	0xbf14c875	-0.58118373
240	0xbe86c896	-0.2632491
241	0xbe040e6c	-0.12896127
242	0xbe9e8c52	-0.3096643
243	0xbe7425db	-0.23842566
244	0xbf448100	-0.7675934
245	0x3e019223	0.12653403
246	0x3d40f7cc	0.047111318
247	0xbd9f0d9d	-0.077662684
248	0x3d9a67ba	0.075393155
249	0xbdf0b3d4	-0.117530495
250	0xbd149fa2	-0.03628505
251	0x3d7a17ee	0.061057977
252	0xbd98da9c	-0.074635714
253	0x3ee7d8fd	0.45282736
254	0x3e302382	0.17201045
255	0xbe0b3766	-0.13595352

layer1.bias f4 [64]
0	0x3da1d8f6	0.0790271
1	0x3d5ef5f2	0.05443377
2	0xbdac70a3	-0.08419921
3	0xbebecb32	-0.372644
4	0xbca0b6b8	-0.019618377
5	0xbe1115b8	-0.14168441
6	0x3d8c0a0c	0.06837854
7	0x3e47c04a	0.19506946
8	0x3d1bd901	0.038048748
9	0xbe1bc0ec	-0.15210313
10	0xbcd3c366	-0.02585001
11	0x3e35040d	0.17677327
12	0x3e528948	0.20560181
13	0x3e5abae9	0.21360363
14	0x3eb51d3b	0.35373864
15	0x3ecca494	0.39969313
16	0x3ed32dbd	0.41245833
17	0x3dca0b45	0.09865431
18	0xbe29e580	-0.16591454
19	0x394d14dd	0.00019558096
20	0x3e972292	0.29518563
21	0x3e203b99	0.15647735
22	0xbc2ca5e0	-0.010537595
23	0x3e8228bf	0.25421712
24	0xbdf0ffa4	-0.117675096
25	0x3ee0c488	0.4389994
26	0x3e63db1c	0.22251552
27	0xbe55bf3b	-0.2087373
28	0xbe33b29e	-0.17548606
29	0x3e032d90	0.1281035
30	0x3e01e68b	0.12685601
31	0x3dcb43c5	0.099250354
32	0x3ee85127	0.45374414
33	0x3ea9fafd	0.331993
34	0xbd5972dd	-0.053088058
35	0xbcc59c4b	-0.024122378
36	0x3e2b9e86	0.1675969
37	0xbe7a113c	-0.24420637
38	0x3e41ca7b	0.18924896
39	0xbe36429d	-0.17798848
40	0xbe2c5998	-0.16831052
41	0x3ec0f68a	0.37688094
42	0x3cc1619b	0.023606112
43	0x3deed1a8	0.116610825
44	0x3e88f0f8	0.26746345
45	0x3d9608bd	0.073258854
46	0x3e5fc94b	0.21854131
47	0x3db469b6	0.08809225
48	0x3ead56b8	0.33855224
49	0x3e7b986b	0.24569862
50	0xbe865037	-0.26233074
51	0x3c9b4c8e	0.018957403
52	0xbd655fa5	-0.055999417
53	0xbe1ce6a9	-0.15322365
54	0xbdd45c20	-0.10369134
55	0xbcec165b	-0.028819254
56	0x3e9ed509	0.31021908
57	0xbd9de408	-0.07709509
58	0x3e93ac21	0.2884226
59	0xbde14747	-0.10999923
60	0x3eb674b6	0.35635918
61	0x3e23bc23	0.15989737
62	0xbca41196	-0.020027917
63	0xbe33959c	-0.1753754

layer2.weight f4 [128, 64]
0	0x3d99d29c	0.07510874
1	0xbd35fe80	-0.044432163
2	0x3de382f2	0.1110896
3	0xbd720a01	-0.05909157
4	0xbd542358	-0.05179152
5	0xbd388e12	-0.045057364
6	0xbd538d47	-0.051648404
7	0xbe05084d	-0.12991448
8	0xbd82f042	-0.06393482
9	0xbe235988	-0.15952122
10	0xbd1f4c41	-0.03889108
11	0xbe081e42	-0.13292792
12	0x3c8b9d11	0.017042669
13	0xbe703daa	-0.23461023
14	0x3b9232f3	0.00446164
15	0xbd3f7089	-0.04673818
16	0xbe139013	-0.14410429
17	0xbe1bbf59	-0.15209712
18	0x3e4eae10	0.20183587
19	0x3cef4d7d	0.029211754
20	0xbc679eaf	-0.014136954
21	0xbdaaa5d0	-0.083324075
22	0xbe1f79e5	-0.15573843
23	0x3ea95854	0.33075202
24	0x3dd603b6	0.104499266
25	0x3d73835a	0.05945144
26	0x38083a72	3.247936e-05
27	0x3d1dfcfc	0.038571343
28	0x3e8a4440	0.27005196
29	0xbd0ee51c	-0.034886464
30	0x3e15b2f2	0.14619043
31	0xbe2f02b6	-0.17090878
32	0xbdbae1d9	-0.09125108
33	0x3e5003ad	0.20313902
34	0x3e2ecb46	0.1706973
35	0xba4de218	-0.000785382
36	0x3e0d0941	0.13773061
37	0x3db58ec0	0.08865118
38	0xbe644169	-0.22290577
39	0x3e5552cb	0.20832364
40	0x3d158de5	0.036512274
41	0x3c4dfc72	0.012572395
42	0xbc24b2e7	-0.010052419
43	0xbd2ba206	-0.041902564
44	0x3e14e781	0.14541437
45	0xbbe949bd	-0.007119386
46	0x3de65a18	0.11247653
47	0xbd106d94	-0.03526075
48	0x3e38b9e8	0.18039668
49	0x3dd002e6	0.10156803
50	0xbdd4aa8e	-0.10384093
51	0x3e138b55	0.1440862
52	0x3d99b98f	0.075060956
53	0x3de59318	0.112096965
54	0x3de6a5aa	0.11262067
55	0x3daf2b32	0.08553161
56	0xbdd505c8	-0.10401493
57	0x3ddef259	0.10886068
58	0xbd99935e	-0.07498811
59	0x3dca698e	0.09883414
60	0x3d13704d	0.03599577
61	0xbd0dd179	-0.034623597
62	0x3e3c14aa	0.18367258
63	0x3de3d4da	0.111245826
64	0x3d75d446	0.060016893
65	0xbd9df2fd	-0.07712362
66	0xbe96c76d	-0.29449025
67	0xbdadd6c0	-0.08488226
68	0xbe1525ea	-0.14565244
69	0x3d76d8e5	0.06026544
70	0x3db6a8f0	0.08918941
71	0x3e2a9c91	0.16661288
72	0x3ce45dd7	0.027876778
73	0xbe67de5b	-0.22643416
74	0x3cb6a5b4	0.02229581
75	0x3dad10be	0.08450459
76	0x3dbc64a1	0.09198881
77	0x3da90059	0.082520194
78	0xbabf2ba7	-0.0014585153
79	0x3cf08052	0.029358063
80	0x3dd9da53	0.10637345
81	0xbd71742c	-0.05894868
82	0xbe86b385	-0.26308838
83	0xbe645edd	-0.22301812
84	0xbb087bd6	-0.0020825765
85	0x3d90922d	0.07059131
86	0x3d26d7f6	0.0407333
87	0xbd49af27	-0.049239304
88	0xbd528ddd	-0.051404823
89	0x3e4dcf51	0.20098616
90	0xbccdc818	-0.025119826
91	0x3d8f3061	0.069916494
92	0x3d3cec4f	0.0461238
93	0x3d0c1abc	0.034205183
94	0x3e8b8fc6	0.27258128
95	0x3d94ee66	0.072720334
96	0x3c9ac454	0.018892445
97	0x3de78e21	0.11306406
98	0x3c98363c	0.018580548
99	0x3cebd0a4	0.028786011
100	0x3ca77c2e	0.020444956
101	0xbe0ae082	-0.13562205
102	0x3d99b347	0.075048976
103	0x3e011551	0.12605788
104	0x3db3a599	0.087718196
105	0x3dc9ef6f	0.098601215
106	0xbe1fcdb3	-0.15605812
107	0xbd2b2491	-0.04178292
108	0x3e35c1a4	0.1774965
109	0x3dd8e79b	0.1059105
110	0x3e1e380e	0.1545107
111	0x3ce2d984	0.02769161
112	0x3d19426f	0.03741687
113	0x3df90b8f	0.12160408
114	0xbe50562c	-0.20345372
115	0xbcaccacf	-0.0210928
116	0xbd96b7ad	-0.07359252
117	0xbd14b03e	-0.03630089
118	0x3de85e40	0.11346102
119	0xbd8cb8ba	-0.06871171
120	0x3e180353	0.14845018
121	0x3d5c6e6d	0.053816248
122	0xbe42d71d	-0.19027372
123	0x3d6c827c	0.057741627
124	0xbe20acb1	-0.15690877
125	0x3e16c800	0.14724731
126	0x3d8ca99b	0.06868287
127	0x3c7786c1	0.015107811
128	0xbe7564c3	-0.23964219
129	0xbc956ba8	-0.018239811
130	0x3d4ba94e	0.04972201
131	0x3e826d6c	0.25474107
132	0x3e152097	0.14563213
133	0x3d992afd	0.074789025
134	0x3dc838c0	0.09776449
135	0x3d555691	0.05208451
136	0x3e335147	0.17511474
137	0xbc910554	-0.017702736
138	0x3e31e16b	0.17371146
139	0x3e4b76ed	0.19869585
140	0xbbf1aa30	-0.0073750243
141	0x3e1f3496	0.15547404
142	0x3d84c2ea	0.064824894
143	0x3c8b34e4	0.016992994
144	0x3e059b3b	0.13047497
145	0x3df40dfc	0.1191673
146	0x3d1109d7	0.035409775
147	0xbe1f5e2c	-0.15563267
148	0xbdb87421	-0.09006525
149	0x3ded59c4	0.11589387
150	0xbbfe6538	-0.007763531
151	0xbe32a458	-0.17445505
152	0x3e0303d0	0.12794423
153	0xbd883cca	-0.066522196
154	0xbd8ac31f	-0.06775498
155	0xbe24bcd7	-0.16087662
156	0x3d0d0b42	0.034434564
157	0x3d42c6af	0.04755276
158	0x3d5992b3	0.05311842
159	0xbe092bf2	-0.1339567
160	0xbe817da1	-0.2529116
161	0xbd41748d	-0.047230292
162	0x3e231795	0.15926965
163	0xbdd3446a	-0.10315783
164	0xbe754949	-0.23953737
165	0x3d8211c5	0.063510455
166	0x3d1b5c87	0.037930038
167	0xbe1394af	-0.14412187
168	0x3d1f2d59	0.038861606
169	0xbd1ed1e7	-0.038774397
170	0x3dd1147f	0.102089874
171	0xbd51f751	-0.05126125
172	0xbdda3a8b	-0.106556974
173	0x3e8151ab	0.2525762
174	0xbd2007de	-0.039070003
175	0x3e6ca43b	0.23109524
176	0xbd701e74	-0.058622792
177	0xbdd2f2f8	-0.10300249
178	0x3dafe25f	0.08588099
179	0x3cd3c15e	0.02584904
180	0xbdc6c9d5	-0.09706465
181	0x3ce16555	0.02751414
182	0xbb9dfc31	-0.0048213233
183	0x3d0efe75	0.034910638
184	0x3e3d16cc	0.18465728
185	0xbd852fef	-0.06503283
186	0xbe836660	-0.25664043
187	0xbcaab847	-0.020839823
188	0xbd404787	-0.046943214
189	0xbe2bb901	-0.16769792
190	0xbd9aa109	-0.07550246
191	0xbbc2abca	-0.005940889
192	0x3dda0d10	0.10647023
193	0x3dcc8882	0.09986974
194	0xbe02e0ed	-0.12781115
195	0x3d612116	0.054963194
196	0xbd992815	-0.07478348
197	0x3e2332c3	0.15937333
198	0x3e6ff4d9	0.23433246
199	0x3d5b17d7	0.053489532
200	0xbcc74799	-0.024326133
201	0x3cc8f61a	0.024531413
202	0x3b96a37c	0.0045971256
203	0xbdd4e382	-0.10394956
204	0xbcd0c217	-0.025483174
205	0xbd3ff058	-0.04686007
206	0x3e1324e6	0.14369544
207	0xbd412788	-0.04715684
208	0x3dc4aa02	0.09602739
209	0xbdc02e6f	-0.093838565
210	0xbdad393f	-0.084581845
211	0x3e0851cb	0.13312452
212	0x3c6a2475	0.014290919
213	0x3d891c88	0.06694895
214	0xbd9659a9	-0.0734132
215	0x3e6bfe32	0.23046187
216	0x3e022047	0.12707625
217	0xbdb9a9e0	-0.09065604
218	0xbcdf2f83	-0.027244335
219	0x3d56ae44	0.052412286
220	0x3d2248a1	0.039620046
221	0x3dab31c6	0.08359103
222	0x3e496e0f	0.1967089
223	0x3cf74244	0.030182965
224	0xbe0562b2	-0.1302593
225	0x3d9810eb	0.07425102
226	0xbe145a79	-0.14487638
227	0x3e0dd1b9	0.13849534
228	0x3d98785b	0.07444831
229	0xbd8f635c	-0.07001373
230	0xbd4d6788	-0.050147563
231	0x3e858b9f	0.26083085
232	0x3ddeff42	0.1088853
233	0xbd9cbd1e	-0.07653259
234	0xbdc16bbe	-0.09444378
235	0xbdbdc669	-0.09266359
236	0x3c9143b4	0.017732479
237	0xbd8d4c11	-0.06899274
238	0xbd4ef803	-0.05052949
239	0xbe8dff82	-0.27734
240	0x3b292d17	0.002581423
241	0x3b271a2b	0.0025497775
242	0xbe380051	-0.1796887
243	0x3deeb1cc	0.11655006
244	0x39f1ef3a	0.0004614534
245	0x3d4175c2	0.047231443
246	0x3d2f2c5c	0.042766914
247	0x3db29416	0.087196514
248	0xbdf5cb2b	-0.12001642
249	0xbc9fceef	-0.019507853
250	0xbe93db03	-0.2887803
251	0x3e2c435d	0.16822572
252	0xbd8d1e26	-0.06890516
253	0xbd21f4bb	-0.039540034
254	0x3d9bfeb8	0.07616943
255	0xba161a6f	-0.0005725985

layer2.bias f4 [128]
0	0x3d8f38c9	0.06993253
1	0x3d772bdb	0.06034456
2	0x3acb0523	0.0015489202
3	0x3e0c4696	0.13698801
4	0x3de56ceb	0.11202415
5	0x3d9e3353	0.07724633
6	0xbd4de167	-0.05026379
7	0x3d228fd5	0.03968795
8	0x3de5d720	0.112226725
9	0x3cc86d02	0.024466041
10	0xbd571178	-0.052506894
11	0xbd387ee4	-0.045042887
12	0x3d87350a	0.06601913
13	0x3d5463cf	0.051852997
14	0xbd38760e	-0.04503446
15	0x3dd5e395	0.104437985
16	0x3d236d43	0.039899122
17	0x3d9afdf6	0.075679705
18	0xbe337d07	-0.17528163
19	0xbdef0c28	-0.116722405
20	0xbe04e455	-0.12977727
21	0xbd0dc6c7	-0.034613397
22	0x3e185b67	0.14878617
23	0xbcb86553	-0.022509253
24	0x3e1db004	0.15399176
25	0x3d42eedf	0.047591086
26	0xbd7c2075	-0.06155439
27	0xbd95a5c2	-0.073070064
28	0xbe3fffbc	-0.18749899
29	0xbcee0bd7	-0.02905838
30	0x3cb27d61	0.021788301
31	0x3c0f249f	0.0087367585
32	0xbd9e75d6	-0.07737319
33	0x3de43717	0.1114332
34	0x3e046218	0.12928045
35	0x3d82d96f	0.063891284
36	0xbe205e57	-0.15660988
37	0x3cb2c4b9	0.02182232
38	0x3e5a5c9d	0.21324392
39	0x3e5fb4dc	0.21846336
40	0x3d8fe8be	0.07026814
41	0xbcdf003d	-0.027221793
42	0xbdc5ab6c	-0.09651837
43	0x3e687632	0.22701338
44	0xbd828d67	-0.063746266
45	0xbe3a10c3	-0.18170457
46	0xbd75f0b0	-0.06004399
47	0x3d310a38	0.043222636
48	0xbcf85695	-0.030314723
49	0x3e2fbc27	0.17161618
50	0x3c409a33	0.011755514
51	0x3d90e7f0	0.070754886
52	0x3d074743	0.033026945
53	0x3dea77c6	0.11448626
54	0x3d8625dd	0.065501906
55	0x3d37c533	0.0448658
56	0x3e2ecffa	0.17071524
57	0x3c880d66	0.016607951
58	0xbc6b5c6c	-0.014365297
59	0x3cd1ff81	0.02563453
60	0xbd08588b	-0.033287566
61	0xbdd95b63	-0.10613134
62	0x3d90768e	0.070538625
63	0xbdc506ce	-0.096204385
64	0x3d41483b	0.047188025
65	0x3da77731	0.08177031
66	0xbceba6e3	-0.028766101
67	0xbc880904	-0.016605861
68	0xbc590248	-0.013245173
69	0xbd3b0e7e	-0.045668118
70	0xbc13d3ba	-0.0090226475
71	0x3bc01142	0.0058614323
72	0x3e5fdc9c	0.218615
73	0xbe105ca2	-0.14097837
74	0x3d841799	0.064498134
75	0xbcbdf048	-0.023185864
76	0xbc4bcd7f	-0.012439131
77	0x3e2fe679	0.17177762
78	0x3dc1b2aa	0.094579056
79	0xbd3913b7	-0.045184817
80	0x3e1df109	0.15423979
81	0xbd1c7df9	-0.038206074
82	0x3c92ed86	0.017935526
83	0xbd69632c	-0.056979343
84	0xbd0ddc13	-0.034633707
85	0xbde1660d	-0.11005793
86	0xbc9fd8c5	-0.019512543
87	0xbdaa236f	-0.0830754
88	0x3d1e68e3	0.038674247
89	0xbdbca65d	-0.09211419
90	0xbcbdf7fb	-0.023189535
91	0x3d974677	0.07386487
92	0x3d93577c	0.07194421
93	0xbdd5ac0a	-0.104332045
94	0x3d850c78	0.06496519
95	0xbc589170	-0.013218269
96	0x3cd0f801	0.025508882
97	0xbc83d783	-0.016093975
98	0xbaa92637	-0.0012905066
99	0xbe31e2eb	-0.17371719
100	0x3e316b5a	0.17326108
101	0xbd041392	-0.032245226
102	0xbb8323cf	-0.0040020715
103	0xbe2411d8	-0.16022432
104	0x3ce24329	0.027619915
105	0xbe052ad2	-0.13004616
106	0x3b14866a	0.0022663125
107	0xbcac9f09	-0.021071928
108	0x3da3e6a2	0.08002974
109	0xbbad718c	-0.005293077
110	0xbcb8e260	-0.022568882
111	0x3c639b07	0.013891942
112	0xbd262e90	-0.04057175
113	0x3aa2afb2	0.001241198
114	0x3dc41f8f	0.09576332
115	0xbce91210	-0.028450996
116	0xbd207fec	-0.039184496
117	0x3df1d3c0	0.11807966
118	0x3c907774	0.017635085
119	0xbd8d29ba	-0.06892724
120	0xbe3d5dcb	-0.1849281
121	0x3d54b7ed	0.051933218
122	0xbe3f2a57	-0.18668495
123	0x3c28ca1e	0.010302095
124	0x3d2768e1	0.040871505
125	0xbd5c62f3	-0.053805303
126	0xbdf5da63	-0.120045446
127	0x3cc14840	0.023594022

layer3.weight f4 [9, 128]
0	0x3e48851d	0.19582029
1	0x3e0533af	0.13007997
2	0x3de283a4	0.11060265
3	0x3db8170e	0.08988772
4	0x3e0e35df	0.13887738
5	0xbd1d26ca	-0.03836707
6	0xbe16eb2b	-0.14738147
7	0x39f50b6a	0.00046738546
8	0xbd9eb640	-0.07749605
9	0xbd965c4a	-0.073418215
10	0x3d54316c	0.051804945
11	0x3e2d9f7b	0.16955368
12	0x3dd1b0fd	0.10238836
13	0xbd9fbc12	-0.077995434
14	0xbe0e23f5	-0.13880904
15	0x3cd34989	0.0257919
16	0xbb9f0fbb	-0.00485417
17	0x3e05b0dd	0.13055749
18	0xbe5e533e	-0.21711442
19	0xbe4a9dfc	-0.19786829
20	0xbe0b8c66	-0.13627777
21	0xbe787fd3	-0.24267511
22	0x3e435a1c	0.19077343
23	0x3dcdab92	0.1004249
24	0xbd9b087f	-0.0756998
25	0x3d2f08f3	0.042733144
26	0x3e3ac7e5	0.18240316
27	0xbeb5f182	-0.35535818
28	0xbe38fec5	-0.18065937
29	0x3d4bc88c	0.049751803
30	0xbdaf2586	-0.08552079
31	0xbddada59	-0.10686178
32	0xbe6a60d5	-0.22888501
33	0x3c71f395	0.014767547
34	0x3dab712c	0.08371195
35	0xbe5c669b	-0.21523516
36	0xbd6b546e	-0.057453565
37	0xbd4cd281	-0.05000544
38	0xbe17e723	-0.14834265
39	0x3de3ba45	0.111195125
40	0xbd0980c3	-0.033570062
41	0xbe5be822	-0.2147527
42	0x3e1ffc37	0.15623556
43	0x3e08d22b	0.13361423
44	0x3da1016b	0.078615986
45	0x3e801a9f	0.2502031
46	0xbd80ed3c	-0.06295249
47	0x3c9278d0	0.017879874
48	0xbd21367b	-0.039358597
49	0xbd7d031a	-0.061770536
50	0x3c03b72a	0.008039275
51	0x3d9d8ce5	0.07692889
52	0xbd62c288	-0.0553613
53	0xbcb4bef3	-0.022063708
54	0x3e35cc03	0.17753606
55	0xbef4e962	-0.47834307
56	0x3df77db3	0.12084522
57	0xbade3e7d	-0.0016955879
58	0x3d85cf21	0.06533647
59	0xbdccad53	-0.099939965
60	0xbed0a765	-0.40752712
61	0xbebe6eac	-0.3719381
62	0x3e58e90e	0.21182653
63	0xbdee367d	-0.116314866
64	0xbe5d9a31	-0.2164085
65	0x3dca6934	0.09883347
66	0xbe2ba9c8	-0.16763985
67	0x3e04b546	0.12959775
68	0x3d2d9d46	0.042386316
69	0x3e8c9af7	0.2746198
70	0xbd95829f	-0.073003046
71	0x3bb2df8f	0.005458779
72	0x3d95c01a	0.07312031
73	0x3d12aca3	0.03580917
74	0xbdc05924	-0.09392002
75	0x3e1f58b8	0.15561187
76	0x3e105f82	0.14098933
77	0x3db25813	0.08708205
78	0xbc2a590e	-0.010397209
79	0xbdbc2d24	-0.091882974
80	0x3dc906ab	0.09815725
81	0x3df4fca1	0.11962248
82	0x3d8d94ee	0.06913172
83	0xbe3c5e2a	-0.18395296
84	0x3e7ab324	0.24482399
85	0xbc792b0c	-0.015208017
86	0xbd34e287	-0.044161346
87	0xbe102645	-0.14077099
88	0xbd41ee4d	-0.047346402
89	0x3deafda4	0.11474159
90	0x3dc2be2c	0.09508929
91	0xbb8e0c26	-0.0043349443
92	0x3dcd91e4	0.10037592
93	0x3e2526d6	0.16128096
94	0xbd9fc9f0	-0.078021884
95	0x3e397dcb	0.18114392
96	0x3dd8649e	0.10566066
97	0xbdad6b77	-0.08467763
98	0xbe32f152	-0.17474869
99	0xbe6de5e6	-0.2323223
100	0x3d919a0e	0.07109462
101	0xbe7d9adc	-0.24766105
102	0xbdba587f	-0.090989105
103	0x3c91c742	0.017795209
104	0x3e288332	0.16456297
105	0x3df73b48	0.12071854
106	0x3cc112ca	0.02356853
107	0xbe6459ed	-0.22299929
108	0xbd82a309	-0.06378753
109	0xbd14fee9	-0.036375914
110	0xbd014518	-0.031560034
111	0xbc3f0b2f	-0.011660381
112	0x3e094d7c	0.13408464
113	0xbd9f0112	-0.07763876
114	0xbd00babd	-0.031428088
115	0x3da0b3d6	0.07846801
116	0xbed3ae77	-0.41344044
117	0x3cef1b2f	0.029187767
118	0xbcfe16d5	-0.031016747
119	0xbe09dcb6	-0.13463101
120	0xbdd74645	-0.1051145
121	0x3e02d19a	0.12775269
122	0xbe70131b	-0.23444788
123	0x3e06edd7	0.13176666
124	0xbd36c931	-0.044625465
125	0xbdf6cca4	-0.12050751
126	0xbd8c7296	-0.06857793
127	0x3d8a0238	0.067387044
128	0xbe091eea	-0.13390699
129	0x3e22d373	0.15900974
130	0x3e07cdc6	0.1326209
131	0x3da64767	0.08119088
132	0xbe881bf1	-0.26583818
133	0x3ca22790	0.019794255
134	0xbc8e485e	-0.017368492
135	0x3dfde38c	0.12396917
136	0x3e539fc3	0.20666413
137	0xbd395ef9	-0.04525659
138	0xbd8d7f6e	-0.06909071
139	0x3d9a93ec	0.07547745
140	0xbd179ae4	-0.03701295
141	0xbe524f86	-0.20538148
142	0xbe4527c0	-0.19253445
143	0x3e1c9d0d	0.15294285
144	0x3dfd9bfc	0.12383267
145	0xbe0dac98	-0.1383537
146	0xbe076831	-0.1322334
147	0xbd005aac	-0.03133647
148	0xbe39cd47	-0.18144713
149	0xbd100b9f	-0.035167333
150	0x3dbc91ab	0.092074715
151	0xbe1fb33d	-0.15595718
152	0x3d287ce8	0.041134745
153	0xbde6ebfd	-0.1127548
154	0xbdf03715	-0.11729256
155	0x3d10fe04	0.0353985
156	0xbd222e24	-0.039594784
157	0xbcc16bd8	-0.023610994
158	0xbde3003f	-0.11084031
159	0xbdb55f6c	-0.08856091
160	0xbdbe6715	-0.09297005
161	0xbd2e5344	-0.042559877
162	0xbda2ab61	-0.07942844
163	0x3d65aed8	0.056074947
164	0xbcb10626	-0.021609377
165	0xbe4b33e2	-0.1984401
166	0x3e677135	0.22601779
167	0x3e4aa9a8	0.19791281
168	0xbaf06309	-0.0018340062
169	0xbc9efe72	-0.019408438
170	0x3db060a7	0.08612185
171	0x3de7fe1c	0.113277644
172	0xbba786ed	-0.00511252
173	0x3d89aa5b	0.06721946
174	0xbdb57e10	-0.08861935
175	0xbdeb2923	-0.114824556
176	0x3dde1496	0.1084377
177	0x3c60dc18	0.013724349
178	0xbe150b46	-0.14555082
179	0x3d77a666	0.060461424
180	0x3ccd7dc6	0.025084388
181	0x3ce61c92	0.028089795
182	0x3d3a5eb5	0.045500476
183	0x3d808ce4	0.06276873
184	0x3e2097dd	0.15682931
185	0xbe5d02a5	-0.2158304
186	0x3dd2591a	0.10270901
187	0xbb9ecfee	-0.0048465645
188	0x3c98efe2	0.018669073
189	0xbdbc8590	-0.092051625
190	0xb9e6c885	-0.00044018417
191	0xbc98186a	-0.018566329
192	0x3a8baa65	0.001065564
193	0xbe0f62d6	-0.14002547
194	0x3d5b8060	0.053589225
195	0xbdddb570	-0.10825622
196	0xbe627173	-0.2211359
197	0x3e2741af	0.1633365
198	0x3e2e25f4	0.17006665
199	0xbd84bfc8	-0.06481892
200	0x3e2c924d	0.16852684
201	0xbe573e1c	-0.21019787
202	0x3db24468	0.08704454
203	0x3e26cc10	0.16288781
204	0x3e0758d4	0.13217479
205	0xbe60184e	-0.21884272
206	0x3d447783	0.047965538
207	0xbd458299	-0.04822025
208	0x3e61975a	0.22030392
209	0x3e74da9a	0.23911515
210	0x3d00cee7	0.031447317
211	0x3d61b573	0.055104684
212	0xbc1e34cc	-0.009656142
213	0xbe220082	-0.15820506
214	0x3d57fa51	0.052728955
215	0xbe44ed47	-0.19231139
216	0x3da1bc03	0.078971885
217	0xbdd61106	-0.10452466
218	0xba53c080	-0.0008077696
219	0x3d9c5537	0.07633441
220	0xbe0ae03e	-0.13562104
221	0x3da17dda	0.078853324
222	0x3db808d5	0.089860596
223	0xbe3171b8	-0.17328537
224	0x3dd7fd26	0.10546331
225	0xbd901ba7	-0.07036524
226	0x3c162757	0.009164653
227	0xbe462d5e	-0.19353244
228	0x3e3de53b	0.18544476
229	0x3d2364af	0.03989094
230	0xbe1dab69	-0.15397419
231	0xbcafdba5	-0.02146704
232	0x3e9f51d4	0.31117117
233	0xbd371f8e	-0.044707827
234	0x3d5dde9d	0.05416738
235	0x3d04f3b5	0.03245898
236	0xbe16a691	-0.14711978
237	0xbdd8e963	-0.1059139
238	0xbe40eb58	-0.18839777
239	0xbde52c44	-0.111900836
240	0x3db57ca2	0.088616624
241	0xbe4749d8	-0.19461763
242	0x3d529e95	0.051420767
243	0xbdf810e8	-0.121125996
244	0xbe056f08	-0.13030636
245	0x3e329d90	0.17442918
246	0xbe813588	-0.25236154
247	0xbdc2e952	-0.095171586
248	0xbe599398	-0.21247709
249	0xbd9f2e11	-0.07772458
250	0xbe48486e	-0.1955888
251	0xbe3cc15b	-0.18433134
252	0x3d9aae32	0.07552756
253	0xbe1016f5	-0.14071257
254	0xbe09acc8	-0.13444817
255	0x3da985dc	0.08277485

layer3.bias f4 [9]
0	0xbcc624cb	-0.024187466
1	0x3c7b30a2	0.015331419
2	0x3d9233c6	0.07138781
3	0xbb9d6b1d	-0.0048040287
4	0x3dafefe6	0.08590679
5	0xbc8d4776	-0.01724599
6	0x3db1f9f9	0.086902566
7	0x3db758fe	0.08952521
8	0x3d5f02db	0.054446083
